…
8","executionInfo":{"status":"ok","timestamp":1644043197488,"user_tz":-540,"elapsed":301,"user":{"displayName":"esk","photoUrl":"https://lh3.googleusercontent.com/a-/AOh14GjFrlurnzytEJOT4QQSEawfWtXw9dZ-mefqWy1beDg=s64","userId":"00800185256653261751"}}},"execution_count":20,"outputs":[{"output_type":"stream","name":"stdout","text":["Model: \"sequential\"\n","_________________________________________________________________\n"," Layer (type)                Output Shape              Param #   \n","=================================================================\n"," conv2d (Conv2D)             (None, 148, 148, 32)      896       \n","                                                                 \n"," max_pooling2d (MaxPooling2D  (None, 74, 74, 32)       0         \n"," )                                                               \n","                                                                 \n"," conv2d_1 (Conv2D)           (None, 72, 72, 64)        18496     \n","                                                                 \n"," max_pooling2d_1 (MaxPooling  (None, 36, 36, 64)       0         \n"," 2D)                                                             \n","                                                                 \n"," conv2d_2 (Conv2D)           (None, 34, 34, 96)        55392     \n","                                                                 \n"," max_pooling2d_2 (MaxPooling  (None, 17, 17, 96)       0         \n"," 2D)                                                             \n","                                                                 \n"," conv2d_3 (Conv2D)           (None, 15, 15, 96)        83040     \n","                                                                 \n"," max_pooling2d_3 (MaxPooling  (None, 7, 7, 96)         0         \n"," 2D)                                                             \n","                                                                 \n"," flatten (Flatten)           (None, 4704)              0         \n","                                                                 \n"," dense (Dense)               (None, 512)               2408960   \n","                                                                 \n"," activation (Activation)     (None, 512)               0         \n","                                                                 \n"," dense_1 (Dense)             (None, 5)                 2565      \n","                                                                 \n","=================================================================\n","Total params: 2,569,349\n","Trainable params: 2,569,349\n","Non-trainable params: 0\n","_________________________________________________________________\n"]}]},{"cell_type":"markdown","source":["## 3.5 ) Fitting on the Training set and making predc
…
